api/game/ai/hard_model.pth (torch, 344036 bytes, 7 tensors)

conv1.weight f4 [64, 2, 3, 3]
00000000: 3df5 a43f 5479 473e 9e98 4bbf ddb0 2b3e
00000010: c92f fbbe 3c77 9abe 5436 cb3e e217 5ebe
00000020: 5503 48be 947a 133f 6620 433f 318b 03bf
00000030: 829e 45bf fb78 a4bd 50e3 ef3e 64b4 b63e
00000040: 9f0f 583f 9cde 853f 11be 2540 d999 96bf
00000050: 3bc0 bf3f 421a a1bf 3e96 a03e 4441 7bbe
00000060: c89e 5c3f 2f0b 8dbf 8f70 6dbf 3d0a 423e
00000070: e064 bdbe 4de5 5f3f de1e d8bf cd48 c7bc
00000080: 6cb0 1c3f ad4b 5dbe 792b 393f d87c 4a3f
00000090: 1a81 76bf 1878 8fbf 1f63 c63f 7c99 0ebd
000000a0: 62ec 9c3f 637b af3e 01fc ef3e 557f 5dbe
000000b0: f4d3 683f d19e 6dbe 051a a0bf 6490 933f
000000c0: 6bd1 8f3e 59b1 e23e 60e7 283f 7fee 613f
000000d0: 7c7f f7be b797 e03f aaf2 393f 7eb6 f8be
000000e0: d748 52bf 1b99 363f 382f 2f3e c3ca 01bf
000000f0: 4852 34bf ab56 56bf eb31 393f b60b 83bf
00000100: 5dc2 883e 0e36 37be a6c3 ebbe 25e3 983f
00000110: a648 af3e dbea 42bf d4e2 1ebf 2c14 703f
00000120: 0c6b a53f 5d03 b2be 1c09 da3e 253f 69bf
00000130: 4962 663e 92ff ae3d 234d 593e 2b23 3fbf
00000140: bf18 9d3e 5b47 8a3f 4634 44bf aee0 dc3d
00000150: 2372 4c3f dd4b 56bf f75b 053f 139d b73f
00000160: 9ffa 69bf b095 753f c4c5 da3e cfe5 a3bf
00000170: 5e97 793e f166 e93e 1a74 383e 3108 4e3f
00000180: 4cd2 353f c6a5 f43e 2b62 8cbf fcd8 ec3f
00000190: 0446 80bf 476d bebd c539 083f 68fa d53e
000001a0: a6db f43e 8285 bb3f 7897 f03e 8543 cdbe
000001b0: cbd6 db3f ea1e 92bf a03f 043d cba8 ee3c
000001c0: 5367 4f3f 0a31 5abe bdef bc3f d1d7 86bf
000001d0: 460c 723f 9344 dfbe c708 42bf 3873 52bf
000001e0: 4525 b9bf 46c7 5c3e 19ec 37bf 7ca1 cebd
000001f0: bfd7 3f3e d086 b53f ab5c 693f 6b20 493e
00000200: d965 9bbe 1d84 6b3f 1b94 173e ed01 96bf
00000210: ebfe 21bf 9175 8bbf 2803 47bf 673a a23f
00000220: 76cd 9dbf 5ab6 a43f c01c b03f 7def 87bf
00000230: c505 133f 378c 2d3e fbb5 0d3e 29dc e83e
00000240: 43e2 713f 36e0 d43e de7d 393d 2ffb 78be
00000250: 5f21 4cbf 0d2b 3abe e94d e93e d834 47bf
00000260: 54bb a0bd 54f9 e53e 5f35 f93e 0555 a23e
00000270: 9bb0 ae3f 8e20 81bf a3a5 c2be be68 593f
00000280: ee26 553e fdb8 d2bd d36f a2bd 2f82 293f
00000290: 4c19 f83e 55e0 043c 5fbf cebe 1e55 03bf
000002a0: f098 94bf b783 a7bf 90cf 3dbf 7848 393f
000002b0: 5763 9a3f 120d 18be 6be3 0f3f 62b8 a33f
000002c0: fcb3 02bf da13 2a3f e074 ecbe 3a74 453e
000002d0: e125 bb3f a2c3 bd3f c26c 923f 0cde 90bf
000002e0: 3b89 c4be 6af5 ba3c 4dc5 d5be 6957 573d
000002f0: 19cc 9b3e 0b8b f03f 451c 4e3e 10de 683f
00000300: 9408 8e3e 568a 8fbe e305 2fbf 60f2 adbf
00000310: c936 90be f4cb 873e 40f6 bb3e cf3e b63f
00000320: f59f 41be 7bf6 093e 494a 46bf 6bd3 0f3e
00000330: f101 573e c9fb 0fbf eab0 47bf 94ab 9bbf
00000340: bb49 c93f 2e39 29bf edf3 c43e f014 0c3f
00000350: 0184 8d3f e205 6b3f a4cf 09bf 2c0b bb3f
00000360: 2fc4 8c3f 5ed4 2fbc 5480 843f 3ad2 71bf
00000370: c937 afbf 807d f7bd ab85 6b3e e328 ed3f
00000380: c729 823f 2610 143f 178f 91bf 9800 5dbf
00000390: cd4b 0dbc 8f54 6bbf dfb2 c1be 3053 c13b
000003a0: 7edf 793f 3a52 febe f3ca 173f 80b8 73be
000003b0: 4620 c53e 961f 8e3d 3a60 8abf 04a9 3e3f
000003c0: c4f0 223f f25d 873f 41e1 b6be 4249 3f3f
000003d0: 81d4 803e 611c b83e 6cec 7d3d f433 8dbf
000003e0: fc2e af3e a29b 413f e63f 493f cd06 43bf
000003f0: ad17 583e eec5 64bf 47a7 8b3b 62fd a63e
1.2887341 0.19479877 -0.7952975 0.16766687 -0.49059895 -0.30169094 0.39689887 -0.21688798
-0.19532521 0.57608914 0.7622131 -0.51384264 -0.7719499 -0.08030888 0.46853113 0.35684502
0.84398836 1.045856 2.5897257 -1.17657 1.4980539 -1.2586138 0.31364626 -0.24536616
0.8617978 -1.1019038 -0.92749876 0.18949218 -0.36991024 0.8745926 -1.688442 -0.024326706
0.612067 -0.216109 0.7233196 0.79096746 -0.96290743 -1.1208525 1.5498999 -0.034814343
1.2259638 0.34273824 0.4687195 -0.21630605 0.90948415 -0.23205115 -1.250794 1.152844
0.2808946 0.4427593 0.6597805 0.8825454 -0.4833945 1.75463 0.726359 -0.4857673
-0.82142395 0.7132737 0.17107856 -0.50700015 -0.7043805 -0.83725995 0.72341794 -1.0237949
0.26710787 -0.17891714 -0.46047705 1.1944319 0.34235114 -0.7613961 -0.6206486 0.9378078
1.2923293 -0.3476819 0.42585075 -0.91111976 0.2249843 0.0854484 0.21220832 -0.7466304
0.30682942 1.0803026 -0.7664226 0.10785042 0.7986166 -0.8370951 0.5209345 1.434481
-0.9139804 0.9593153 0.42729008 -1.2804507 0.24374148 0.4558635 0.18013039 0.8048125
0.7102401 0.47782725 -1.0967458 1.8503718 -1.0021367 -0.09298187 0.5321315 0.41792607
0.47823828 1.4650118 0.4699056 -0.40090576 1.7174925 -1.1415684 0.03228724 0.029133221
0.81017035 -0.2130777 1.4760662 -1.0534612 0.9454998 -0.43607005 -0.75794643 -0.8220706
-1.4464499 0.21560392 -0.7184463 -0.100893945 0.18734644 1.4181767 0.91157025 0.19641273
-0.3035114 0.91998464 0.14802592 -1.1719338 -0.632796 -1.0895253 -0.7773919 1.2674073
-1.2328327 1.2868149 1.3758774 -1.0619961 0.5743068 0.16948019 0.13838951 0.4548047
0.94485873 0.4157731 0.045286052 -0.24314569 -0.7973842 -0.18180485 0.45567253 -0.7781501
-0.0784823 0.44916785 0.4867353 0.3170549 1.3647646 -1.008806 -0.38016996 0.8492545
0.20815632 -0.1028919 -0.07931485 0.6621427 0.484568 0.008110126 -0.4038038 -0.51301754
-1.1609173 -1.3087071 -0.7414484 0.72376204 1.2061566 -0.14848736 0.5620639 1.2790644
-0.51055884 0.6643654 -0.4618292 0.19282618 1.4620935 1.4825327 1.143944 -1.1317763
-0.3838595 0.0228221 -0.4175209 0.052573595 0.30429152 1.8792433 0.20127971 0.9096384
0.2774092 -0.2803523 -0.6836836 -1.3589592 -0.28166798 0.2652279 0.3671131 1.4237918
-0.18908675 0.13472931 -0.774571 0.14045493 0.20996834 -0.5624357 -0.78004324 -1.2161736
1.5725626 -0.66102874 0.3846735 0.5471945 1.1055909 0.9180585 -0.5383246 1.4612784
1.099737 -0.010731785 1.0351663 -0.94461405 -1.3688899 -0.12084484 0.23000209 1.8528103
1.0169 0.5783714 -1.1371793 -0.8632903 -0.008624029 -0.919259 -0.3783178 0.0058998093
0.97606647 -0.4967211 0.5929405 -0.2380085 0.38501185 0.06939618 -1.0810616 0.7447665
0.6364863 1.0575545 -0.3571873 0.7472116 0.25162128 0.3595915 0.061993048 -1.103148
0.34215534 0.756281 0.78613126 -0.7618225 0.21102782 -0.89364517 0.0042618844 0.3261519

conv1.bias f4 [64]
00000000: c6fb 16c0 94fb 19c0 f92b 6dc0 e369 2bbf
00000010: 96ce 04c0 0e34 2ec0 ac14 2cc0 6095 18c0
00000020: 1b2a 17c0 b1c2 21c0 9661 07c0 69dc 34c0
00000030: 0833 14c0 055f 33c0 8740 efbf e41c 32c0
00000040: a553 e7bf 5cbe 48c0 5d9f d4bf 1450 4bc0
00000050: 92c1 30c0 6892 16c0 7686 59c0 160e a7bf
00000060: beff 48c0 83d2 a7bf 5820 3ec0 0c64 2ec0
00000070: 5fe7 04c0 8092 18c0 3cda f8bf 20bd 3dc0
00000080: 5430 d8bf 4162 37c0 d85f 8ebf 6b46 33c0
00000090: fb86 0fc0 beff 31c0 6f37 54c0 5908 40c0
000000a0: 21bc 04c0 714a edbf 8ec5 0d3f f8f7 52c0
000000b0: 2d7f 15c0 4a69 33c0 ad68 43c0 3d4c 09c0
000000c0: f5d5 38c0 ed30 42c0 15ce 0fc0 7c7d 9cbf
000000d0: fa9e 28c0 ba38 44c0 d192 0bc0 bc37 24c0
000000e0: 3a53 15c0 2c06 23c0 6889 0ac0 215b ccbf
000000f0: 3fc6 e1be 6624 84bf 1ffb 06c0 71d1 3dc0
-2.359117 -2.40598 -3.7058089 -0.66958445 -2.075109 -2.7219272 -2.6887617 -2.3841171
-2.361945 -2.527508 -2.1153312 -2.8259528 -2.3156147 -2.8026745 -1.8691567 -2.7830133
-1.8072401 -3.1366186 -1.6611134 -3.1767626 -2.7618146 -2.352686 -3.3988318 -1.3051174
-3.1406093 -1.3111118 -2.970724 -2.7248564 -2.0766218 -2.3839417 -1.94416 -2.9646683
-1.6889749 -2.865372 -1.1122999 -2.801173 -2.2426136 -2.7812343 -3.3158834 -3.0005095
-2.0739825 -1.8538343 0.5537957 -3.2963848 -2.3358872 -2.8033013 -3.053264 -2.1452782
-2.888059 -3.0342362 -2.2469532 -1.2225795 -2.6347032 -3.0659623 -2.180836 -2.5659018
-2.3332047 -2.5472517 -2.1646366 -1.596531 -0.44096562 -1.0323608 -2.1090772 -2.9659083

conv2.weight f4 [64, 64, 3, 3]
00000000: 155f 27bf de61 bc3f d75e d4bf 3fab 36bf
00000010: eef1 213f 520f c03f eadb f33f d1c1 06c0
00000020: b211 0cbe 7e6a e6be 8709 f6bf 7a21 df3f
00000030: d3d5 91bf d37e 9140 dee1 9e3f 15dd 3940
00000040: 786e ffbd 1025 a7bf 1b88 7b3e e098 4a3c
00000050: 22e0 de3f 6238 273d a420 6fbe 48be 693f
00000060: 95ba 0940 f9bb 893f 4a11 633f f0ae 873f
00000070: a8fa c73f 34e7 c83f ccc9 f13e ffd5 c23e
00000080: 8ef9 2b40 3d5a a6be 1763 c23e 0b32 0540
00000090: 557e 95bc 5580 e23e 5e30 d2bf 053f e73f
000000a0: 492d 803e 206b a93e 413a 55be db01 c1bf
000000b0: 4b17 2240 0a8c 8740 0555 f2bf 5114 b4bd
000000c0: 90b4 263d a433 c83f cba6 773f 0059 6c3f
000000d0: 81ac b3be 3db7 ae3f 06c8 4d3f 840c dfbe
000000e0: 0cc7 d93f 5f8b 8c3e 40fd 6b3d 3f63 02c0
000000f0: 3742 cf3f 1092 9f3f 87cb cf3f c4f8 2440
00000100: 854f 9f3f b474 333f 36e5 8bbd 5784 c2be
00000110: 5151 3dbe 0ac7 8bbf 7cf1 c43e 8e13 a4bf
00000120: f9a7 5840 bb91 e53b c7b4 743f c9e8 893f
00000130: 52db f1bf 29a7 b53f b777 113f d9f0 bb3e
00000140: 3bbd 62bf a9aa b53f 28ac a63f 17c6 d4bd
00000150: 92e2 a33e bce1 69be cd75 4b3f 1004 a83f
00000160: e85c 9d3f 19f9 103f 1c8e b93f 958a e13e
00000170: ed63 2040 d94a 0140 f875 033f 691e 4440
00000180: 704f b73f facf 3a40 add9 513f 2899 d3bd
00000190: 2172 d63e 1cc3 0940 b7b7 8340 5e2a 74be
000001a0: 07e6 393e 6458 c33f 51bc f83f 8623 433f
000001b0: 01ab 853f bac1 7840 50b4 d2bd 95b7 e83f
000001c0: 946c 0840 8c8a 02bf 6881 013f 1345 3bbf
000001d0: 4900 bf3f 5148 8abe 665b c53f 8655 79bf
000001e0: d1c0 363f b4eb 083e 83eb 8e3f 8909 f03e
000001f0: 00cf 633f 5b2b bbbe e7c6 3140 7159 37be
00000200: 5717 c93f 118a 85bf e9cf 9a3f a009 2d40
00000210: 9c04 a33f 382d 803f cf4b a43f e702 9b3f
00000220: 9230 8cbe 7eba fe3f 02ab e93e 2a5f ab3f
00000230: 70ee 1ebf a0fd dabf 50c4 5940 24b4 a23f
00000240: 5e6a 8f3f 2dd4 693f 8f69 4440 cc95 cdbd
00000250: 37c2 0140 b8cb 0840 92d8 0a40 6123 0640
00000260: a014 963d 8e28 88bf fc12 08bf 6e6e 6440
00000270: ae2a 4440 3407 923e 07c0 b53f 913e ad3e
00000280: 49f2 b23c 9d88 533f dfd2 9bbe e497 ed3c
00000290: 1b40 623e d495 d33f 1e7d 8e3d eee7 49bc
000002a0: 7c1b 403f e48b 2cbf df36 8bbf b48a e03d
000002b0: 4a48 bd3f b83a e4bf 7724 60bf 95ff 1340
000002c0: 4110 cf3e 520a 2bbf fd07 d53f cbd0 323f
000002d0: afb5 633e ca90 52bf 0215 37bf 4d28 963f
000002e0: 565f 0fbe 51bc ee3f 02d9 4b3e 636d 193d
000002f0: 072b 0bbf 47be 5dbf c6a8 1c3f a7d8 5d3f
00000300: 6b43 213e e474 99be 841d 7c3f ced1 9dbe
00000310: 7b42 9f3f ab66 c53f beb5 cabf 0b5b 12bf
00000320: 6931 3b3f 0be9 29bf 91ff 963e 793f a23e
00000330: ba48 f73e 1069 d33e 721c 383e 14fe 873f
00000340: 6df5 bd3f 2000 0040 270e b73f 0282 4f3c
00000350: 1b3e db3f 6601 0840 bdd6 963c 17e5 0f40
00000360: 4d2f 853b a738 d43f f083 3abf ff34 173f
00000370: 85e4 a13e 62af c7be e1ac 8e3f 8d1c 2f3d
00000380: d35d 6d3f 4148 e93f 30c7 7340 8350 993f
00000390: 9a63 763f f975 233f bf56 fc3f 462e 1e40
000003a0: f2d4 5640 2022 333f 141e adbf fcf4 c83f
000003b0: 1108 3540 9160 f9be d40f 9740 87b7 ebbe
000003c0: 2d3e 813f 338d 39bf 298c 693d e602 6b40
000003d0: 965c f83e 2f10 433f 8e51 de3f 153f d4bf
000003e0: 023e 6c3f 6c33 00c0 0b91 de3f 81fb 2c3f
000003f0: 82d0 4a40 5860 99be 52ef 0e3f ab1b 0040
-0.6537946 1.4717367 -1.6591443 -0.7135505 0.6325978 1.5004675 1.9051487 -2.1055796
-0.13678625 -0.45003122 -1.9221658 1.7432091 -1.1393379 4.5467315 1.2412679 2.9041188
-0.12472242 -1.3058186 0.24563639 0.01236555 1.741215 0.040825255 -0.23352295 0.9130597
2.152013 1.076049 0.88698256 1.0600262 1.5623369 1.5695558 0.4722427 0.3805389
2.6871066 -0.3249072 0.37966225 2.0811794 -0.018248716 0.44238535 -1.642101 1.8066107
0.2503455 0.33089542 -0.20823003 -1.5078691 2.5326717 4.2358446 -1.8932196 -0.087929375
0.04069954 1.564076 0.9673888 0.92323303 -0.35092548 1.364967 0.80383337 -0.43564236
1.7013869 0.27450082 0.057614565 -2.0373075 1.6192082 1.246645 1.6233987 2.5776834
1.2446142 0.7009995 -0.06830828 -0.37991592 -0.18488051 -1.0920117 0.38465488 -1.2818468
3.3852522 0.007005898 0.95588344 1.0774165 -1.8895056 1.4191638 0.56823295 0.3670719
-0.8856999 1.4192706 1.3021288 -0.10389345 0.32008797 -0.22840017 0.79476625 1.312624
1.2293978 0.5663009 1.4496493 0.44051042 2.506099 2.0201933 0.5135188 3.064356
1.4321117 2.918944 0.8197277 -0.103319466 0.41883948 2.1525335 4.116176 -0.23844287
0.18154155 1.526135 1.943247 0.7622608 1.0442811 3.8868241 -0.10288298 1.8181025
2.131627 -0.50992656 0.50588083 -0.73152274 1.4921962 -0.27008298 1.5418518 -0.97396123
0.71387964 0.13371164 1.1165622 0.46882275 0.8898773 -0.36556515 2.777765 -0.17905213
1.5710248 -1.043276 1.2094699 2.7037125 1.2735782 1.00138 1.2835635 1.2110261
-0.27380806 1.9900663 0.4563828 1.3388417 -0.62082577 -1.710865 3.402607 1.2711225
1.1204336 0.9133938 3.0689428 -0.10038337 2.027479 2.137434 2.1694684 2.0959094
0.07328153 -1.0637376 -0.5315397 3.56924 3.065105 0.2852112 1.4199227 0.33836797
0.021844046 0.8263033 -0.3043432 0.029003091 0.22094767 1.6530099 0.06957458 -0.012323363
0.7504194 -0.67400956 -1.087612 0.109639555 1.4787686 -1.783042 -0.8755564 2.3124745
0.40442088 -0.6681262 1.6643063 0.6984984 0.22237276 -0.8225218 -0.7151643 1.1731049
-0.14001212 1.865122 0.19907 0.037457835 -0.5436253 -0.86618465 0.6119503 0.8665871
0.15748374 -0.29971993 0.9848254 -0.3082413 1.2442163 1.5421957 -1.5836713 -0.5717017
0.7312227 -0.6637122 0.29491857 0.3168905 0.48297673 0.41291094 0.17979601 1.0624413
1.4840523 2.0000076 1.4301194 0.012665274 1.7128328 2.1250854 0.018412942 2.2483575
0.0040644766 1.6579789 -0.7285757 0.5906524 0.3161966 -0.39000994 1.1146508 0.042751838
0.9272129 1.8225175 3.8090324 1.1977695 0.9624573 0.63851887 1.9713973 2.4715743
3.3567472 0.69973946 -1.3524804 1.5699763 2.8286173 -0.48706487 4.720682 -0.46038458
1.00971 -0.7248108 0.057018433 3.672052 0.48508137 0.7619657 1.7368639 -1.6581751
0.92282116 -2.0031385 1.7388014 0.67571265 3.1689763 -0.29956317 0.55833924 2.0016887

conv2.bias f4 [64]
00000000: 05a5 d1bf bb48 dcbe 16d9 6dbf c556 5abf
00000010: 6a2f 99bf 3edf 62bf 28ad 50bf 3ebc a3bf
00000020: 12a4 5dbf 4120 bebd c87e 84bf 24ed 96be
00000030: 0ccf 75bf 7341 6d3e 9cd5 cdbf c180 c4bf
00000040: 7b4a 01bf 5c54 84bf f5d5 333f 6e0a 1abf
00000050: afb5 70bf bdf6 34bf 8086 8dbf e644 58bf
00000060: 7907 f1bf 5fd4 64bf 91a8 a7bf 3a3d 383e
00000070: 4e0c a9bf 1326 b7bf 628f 56bf 9588 89bf
00000080: cf0f 323d bb19 50bf 83a2 89bf 1fc6 bdbf
00000090: f63a 24bf f543 06bf b3d1 abbe fda5 62bf
000000a0: 5ef1 103f bbba 67bd 15e6 6dbe f98c 73bf
000000b0: 543e debf 14d1 d8bf a59f 8bbe 5114 a2bf
000000c0: ffbf c7bf d546 49bf 7041 bbbe 9b27 7abf
000000d0: 2d8b b3bf 3bd9 79bf 2980 4abf 5718 c7be
000000e0: fea2 47bf 1292 803a e4bb f2be 714a acbf
000000f0: e345 bcbd 4b9d 7ebf e7b6 81bf e982 74bf
-1.6378485 -0.4302424 -0.9290937 -0.8528865 -1.1967595 -0.8862189 -0.81514215 -1.2791822
-0.86578476 -0.09283496 -1.035119 -0.294778 -0.96019053 0.23169498 -1.6080813 -1.5351793
-0.50504273 -1.0338244 0.7024835 -0.60172164 -0.9402723 -0.7068899 -1.1056671 -0.8448013
-1.8830405 -0.8938655 -1.3098317 0.17992106 -1.320688 -1.4308494 -0.83812535 -1.0744807
0.043472107 -0.8128926 -1.075272 -1.4826087 -0.6415247 -0.52447444 -0.33558425 -0.8853453
0.566183 -0.056574564 -0.232323 -0.9513698 -1.7362771 -1.6938806 -0.27270237 -1.266245
-1.5605468 -0.78623706 -0.36573362 -0.97716683 -1.4026848 -0.9759709 -0.79101807 -0.38885757
-0.7798308 0.0009809157 -0.47408974 -1.3460218 -0.09193017 -0.9945876 -1.0133942 -0.95512253

policy_head.weight f4 [14, 3136]
00000000: e9e8 b0c0 9888 c3c0 20e1 d43f 7c77 a4c0
00000010: afc5 83c0 d91b 07c0 3bee cfbf ffd8 bf3f
00000020: 0301 afc0 5396 3bc0 adc2 283f 73bb 73c0
00000030: f39b 41c0 664c fa3f c7d1 85c0 0e08 5e40
00000040: 3e9e 8040 0cf9 a740 0ba3 c0c0 7c3d 0ac1
00000050: d900 cfbe 34f2 1bc1 573a 1dc0 c872 57bf
00000060: ffda fabf 4bb9 1ec0 c0dd d8bf ca68 b5c0
00000070: b0ab b1c0 7cc6 39c0 55fe 02c0 fba6 303f
00000080: c735 c9c0 0def 81c0 388c 38c0 62ea fac0
00000090: c65f f63e 5e31 2dc0 9cd1 bfc0 6cb6 18c0
000000a0: cef7 50bf d0df dcc0 e8f2 bac0 9ecb 653f
000000b0: 5f08 95bf a763 8e3f 6a7c 80c0 0c1d 9ac0
000000c0: 1b6f 2ac0 29f6 aec0 6404 85c0 5c31 bac0
000000d0: 7b3b d7bd 184d 25c1 6f37 e1c0 939d b3c0
000000e0: 2bfd 9fc0 4bdf 543f e8fb 73c1 87a1 bfc0
000000f0: 76e1 4ac0 4812 45c0 85c7 69c0 4201 5ac2
00000100: f227 b4bf 466b 49c0 4d0f 33bf 101f fd3f
00000110: 2290 98c0 eacc abc0 3304 adc1 1313 a0bf
00000120: 4928 c4c0 6cbe cdc0 9224 14c0 c8fc 46c0
00000130: d56b 19bc 0640 b5c1 c908 43c0 5934 2bc1
00000140: b345 41c0 464d 46c0 ffe4 8cc0 146c 0bc0
00000150: 520d 59c2 b6cc ea3d 69fd 70c0 63f6 97bf
00000160: 041d d8bf c06f a0be b168 b3c0 b8d1 98c1
00000170: ff1a 8c3f 3ee5 4040 b548 32c0 b9f3 e6bf
00000180: eec1 44c0 c67c f1c0 62b7 48c0 b29c 8abf
00000190: aa9e 85c0 c436 04c0 7a83 5abf 7c33 3dc0
000001a0: c7f7 da3f 5586 8fbf 0113 99c0 b04b 4bc0
000001b0: 1d13 71c0 258c b1c0 5b1b e6bf 5307 8ac0
000001c0: 16e6 f1c0 2588 353f 805e b13e 0a63 16c0
000001d0: dbe3 39c0 2e7a 16c0 6da1 bbc0 81f8 9ac0
000001e0: 25dc a8c0 6dfd abc0 7655 1fbf cb60 22c0
000001f0: 6f8f 00bf 742a 713f 0f87 30c1 957a fec0
00000200: 3e64 51c0 6677 87c0 5acd 27c0 a802 91bf
00000210: 8ee7 12bf 072e da3f 0505 13c1 74db 8fc0
00000220: 7202 8fc0 b13b b3c0 6894 8ac0 2b0c 05c1
00000230: 4013 44c1 0fbb 85c0 4220 2640 0863 783d
00000240: ea37 ff3e 1453 aebf 0aec 5cc0 ce3c 76c0
00000250: ec95 5f40 7637 ddbf 9b00 873f a4b5 abc0
00000260: 12db 5dc0 c192 c5c0 db73 b9c0 2c83 acbf
00000270: d558 9a3f c5f6 1fc1 1e6b c13f a54b 89c0
00000280: 16a0 65c0 b1aa 97bf 7d4b 2bc1 c69d babf
00000290: b24f 59bf 982c f1bf 6dc7 47c0 6da0 e5c0
000002a0: d6a1 a9c1 bb0f cdc0 3e0e dac0 d44b 403d
000002b0: 027e 0e3f 80e3 68c0 eae4 1a40 2645 43c1
000002c0: 3afd 6ac0 5360 2dbf 02c3 1a40 90ae 53c0
000002d0: 9334 1fc0 388a 0cc0 b8dd 7fc1 3689 a33f
000002e0: c9c9 10bf db69 25c0 940f 1240 4157 93c0
000002f0: b5d7 99c0 124e afc1 0fed 98c0 b83b 13c0
00000300: 996e 2fbf 7c97 0f3f c743 1ac0 2b67 b0bd
00000310: dcc5 61c0 920d 09c1 a401 d4bf f808 bc3f
00000320: 951d 26c0 3224 a8c0 bd79 c8bf 2c77 94c1
00000330: 0d27 cdbf fbb4 d6bf 14a9 7ec0 c48b cbc0
00000340: 428f a0c0 1835 abbe 161c 9940 b9f5 2ec1
00000350: 438c 91c0 dbbb 98c0 1830 76c0 2f6b a2c0
00000360: 5ce4 19c0 5665 08c1 157a 82c0 fd8c 633e
00000370: 0792 04bf 05fa 673f db8d 0cc0 2e78 563f
00000380: df4b 31c1 f5e3 26c1 c35f d9bf 849d 19c0
00000390: db41 47c0 1792 863e b55a cbbf a8e3 d7c0
000003a0: a005 3e3f a2f5 a1bf 8886 08c1 1399 05c0
000003b0: 8fd4 6ac0 794c 24c0 cb1f 5ec0 589b 80bf
000003c0: 9e19 d8bf 67b7 20c0 3843 87c0 d7e5 10c0
000003d0: fc41 973e cd23 3cc0 cfa1 05c0 2896 3b3f
000003e0: 5299 9cbf 1dab 73c0 cfde 96c0 dc70 c5bf
000003f0: 7626 35c0 1dda fbc0 84d0 17c0 21af 02be
-5.5284314 -6.110424 1.6631203 -5.1395855 -4.1178813 -2.1110747 -1.6244577 1.4988097
-5.4688735 -2.93105 0.6592205 -3.808316 -3.0251434 1.9554565 -4.1818576 3.4692416
4.0193167 5.249151 -6.0199027 -8.640011 -0.40430334 -9.746632 -2.4566858 -0.8415952
-1.9598082 -2.4800594 -1.6942673 -5.6690416 -5.552208 -2.9027395 -2.0467732 0.6900479
-6.2878146 -4.060431 -2.8835583 -7.841111 0.48119944 -2.7061381 -5.994337 -2.3861341
-0.8162812 -6.902321 -5.8421516 0.8976382 -1.164318 1.1124161 -4.0151873 -4.8160458
-2.6630313 -5.467549 -4.156786 -5.8185253 -0.10509392 -10.331322 -7.038017 -5.612985
-4.9996543 0.8315322 -15.249001 -5.9884677 -3.170011 -3.0792408 -3.6528027 -54.50123
-1.407469 -3.1471725 -0.6994522 1.9775105 -4.7675943 -5.368764 -21.62705 -1.2505821
-6.1299176 -6.429495 -2.314732 -3.1091785 -0.009364088 -22.656261 -3.0474112 -10.70028
-3.019879 -3.0984664 -4.4029536 -2.1784716 -54.26301 0.11464827 -3.765467 -1.1872066
-1.6883855 -0.31335258 -5.6065297 -19.102402 1.0945739 3.0139918 -2.7856877 -1.8043128
-3.0743365 -7.546481 -3.1361928 -1.082907 -4.175618 -2.0658426 -0.8535687 -2.9562674
1.7106866 -1.121287 -4.78357 -3.1764946 -3.7667916 -5.5483575 -1.7977098 -4.313394
-7.5593367 0.70910865 0.3464241 -2.3497949 -2.9045322 -2.3512073 -5.8634553 -4.842835
-5.276873 -5.374686 -0.6223978 -2.5371578 -0.5021886 0.94205403 -11.032973 -7.9524636
-3.2717433 -4.233325 -2.6219087 -1.1328936 -0.57384574 1.7045296 -9.188725 -4.4955387
-4.4690485 -5.6010365 -4.330616 -8.315471 -12.2547 -4.1790843 2.5957189 0.06064132
0.49847347 -1.3619103 -3.4519067 -3.8474612 3.4935255 -1.728255 1.054706 -5.365923
-3.466496 -6.1741643 -5.7953925 -1.347753 1.2058359 -9.997746 1.5110815 -4.290484
-3.5878959 -1.1848966 -10.70593 -1.4579399 -0.8488723 -1.8841734 -3.121547 -7.175833
-21.204021 -6.40817 -6.8142385 0.046947315 0.5566102 -3.6388855 2.4202218 -12.204382
-3.6717057 -0.67725104 2.4181523 -3.3075294 -2.4875839 -2.1959362 -15.991631 1.2776248
-0.565579 -2.584586 2.2822008 -4.604401 -4.8075814 -21.91312 -4.778938 -2.30052
-0.68528134 0.5609052 -2.4103868 -0.08613428 -3.5277014 -8.565813 -1.6563001 1.4690237
-2.5955555 -5.2544184 -1.5662152 -18.55819 -1.6027542 -1.6773981 -3.9790697 -6.360811
-5.0174875 -0.33438945 4.7846785 -10.934991 -4.548372 -4.7729316 -3.8466854 -5.075584
-2.404563 -8.52474 -4.0774026 0.22221752 -0.5178532 0.90615875 -2.1961582 0.8377713
-11.081023 -10.430654 -1.6982349 -2.400239 -3.1133945 0.26283333 -1.5887057 -6.74654
0.74227333 -1.2653086 -8.532845 -2.087468 -3.6692235 -2.5671675 -3.4706905 -1.0047407
-1.6882818 -2.511194 -4.2269554 -2.2640283 0.2954253 -2.939685 -2.088001 0.73275995
-1.223429 -3.807319 -4.7146983 -1.5425067 -2.8304725 -7.870375 -2.3721018 -0.12762119

policy_head.bias f4 [14]
00000000: 163e f1c1 523e f1c1 a6bb b2c1 503e f1c1
00000010: 103b f1c1 3a3e f1c1 3e3e f1c1 873f f1c1
00000020: 3d3e f1c1 8525 90be 383e f1c1 3958 02c2
00000030: 6036 f1c1 023e f1c1
-30.155315 -30.15543 -22.341625 -30.155426 -30.15384 -30.155384 -30.155392 -30.15602
-30.15539 -0.28153625 -30.15538 -32.586155 -30.15155 -30.155277

value_head.weight f4 [1, 3136]
00000000: c45d 0bbe 7044 2740 3de0 6fbf 2f5f a1c0
00000010: 7f84 3240 ba68 64c0 e8d8 37c0 fbc4 a2bf
00000020: 7b1b c3bf f10d 1040 e0fe b7bf a142 4540
00000030: 3e7c 8dbf 223e ed3f 306b f03f 6fa1 7ac0
00000040: 3fa2 683e 0c66 34c0 e442 e83f 6fe7 91bf
00000050: 893c 0cc0 3ee1 ddbc 0f2e 1d3c 2a8c e9be
00000060: 6452 febf 7b86 01bf fb28 5abf f668 3740
00000070: efd9 6bc0 c67f 6ebf f3a3 de3f a22c 5440
00000080: 449c cfc0 ad7a 5a3f 9a01 e5bf 0e7a ce3e
00000090: d0e4 10c0 6188 1040 8c5e 8140 34e2 533f
000000a0: 47da 3940 dd2c dec0 eb3c 5f3f e723 2b40
000000b0: 631d f23f 42bc 26c0 1e6d 71bf 0431 c53c
000000c0: 32df 4fbf a0b2 c240 6e60 5940 21e2 0abe
000000d0: 1bbe 1140 751c 2040 592c 2ebe 222e 5140
000000e0: 0e97 81c0 b44c 9bbf 8411 cac0 98a5 823f
000000f0: 9c07 83be 9484 bcbf 893c 4240 7a87 abc0
00000100: 947c 8440 8925 a23f ec0b b03e d328 18be
00000110: 016b 14c0 713a f93e 2dc3 72c1 6124 c23f
00000120: 75c1 c43f 6012 46c0 e093 a43f 0b9c 1b40
00000130: d559 a6be cc91 12c1 345c ac3f 1f31 e0c0
00000140: 04ac 92bd 470c 3440 e1b5 4740 cdad 9040
00000150: 5997 d0c0 ff55 1840 2620 13c0 e44e 0940
00000160: 5145 f5be 9d9b 33c0 cbd1 96bf 3223 a040
00000170: 14ff b63f c127 d340 c7e7 91be 08aa 80bf
00000180: 683b 34c0 92e1 1ac0 037e 4a40 7477 573f
00000190: 95b4 bfbe ba4e 5c40 d806 e53f 3e78 3ac0
000001a0: 9c82 37bf d2f8 b540 dc6b 6bc0 543f c93f
000001b0: e5e4 80bf 401a 703f 1258 04c0 7ac1 f0bf
000001c0: 3107 c23e 8c79 8540 b4f8 1d40 d683 b1bf
000001d0: 4503 9b3e 9e0e c93f eaf3 87bf bd07 593d
000001e0: b895 66c0 c870 db3f 5ad0 903f ce3c a03f
000001f0: 6d48 623f 1596 8340 4a2a 83bf 45c0 3ac0
00000200: 3e64 b53f c3ae c9bf a529 6f3d b3c1 99c0
00000210: deff e4bf 6770 66c0 53d2 c140 b46e 1ec0
00000220: 6928 3bc0 958d 30bd c350 31bf 2e00 09c0
00000230: e11b c040 f6f2 553e af78 6040 dd2f 0f3e
00000240: a8cb b83f 941b 9cbf eaea 1140 69e8 6940
00000250: 628f 6940 05d9 5ebe 2678 4abe 958f ddbf
00000260: ef4f b0bf 6cc7 b2bf 10c4 1e41 74ce bbbf
00000270: cc9c d23f 1457 67c0 5e6b 7c3f 8ac5 9d3e
00000280: 4895 9dbf e3ac be40 b5a2 9abf 9115 bdbe
00000290: f8f7 a23f ea0c cdbf 2115 1840 0a05 51c0
000002a0: 562c 2340 3c32 40bf d4fb b3bd b87f 743e
000002b0: 7725 d4bf 9d31 a4bf 3ed6 6fc0 a500 0c41
000002c0: a473 7fbf 9e96 1cc0 65d1 21c0 c925 6a3e
000002d0: 4821 f7bd 7608 a03e 99dd 13c1 e8c1 ef3f
000002e0: 4be5 54c0 6293 5440 27ec eabf baeb 6a3e
000002f0: ee66 5540 609e 873f 2f5c 1c40 e02e 9540
00000300: 6e81 8ac0 300f 7bbf 46fb 5d3f 24e2 a23e
00000310: de58 2d40 10c0 a03f 5cb2 c23f 6b4d 0740
00000320: f8f3 ccbf 66ff 8a40 1707 4a40 940f 0540
00000330: f0de 5d40 eee8 3a40 2133 e43e 5caa 9040
00000340: adf5 b8bf edfa cabf 066b 00c1 cb9d b9c0
00000350: 2946 1940 97e0 df3f 3e62 c1bf 77a7 d23d
00000360: 7195 64bf 81ca 71bf 7c76 6040 cd9a f5bf
00000370: 5b24 b43f af25 8140 bab1 89bf 9c62 4dc0
00000380: 56fe 1440 7b3f 43be b10f 1dc0 5ba4 d03f
00000390: 43b2 79be d699 0240 779c 9840 f4d7 04c0
000003a0: 6d62 97c0 6d4d a740 f9ee 053f 3bd5 73bf
000003b0: 5815 f3bf d34f 4340 d578 3040 a39c a8bf
000003c0: 4861 0fc0 9c0a 9b3f ae89 2fc0 5745 863d
000003d0: 6528 5bbe 711a fcbf 244d d33e 7002 7ebf
000003e0: 5b1e 983f 9661 1bbf 5619 2e41 8c05 2540
000003f0: c054 1f3e 0890 9b40 1929 503f 41c1 1c40
-0.13609987 2.613552 -0.93701535 -5.042869 2.789337 -3.568892 -2.872614 -1.2716364
-1.5242761 2.250851 -1.4374657 3.0821917 -1.1053541 1.8534586 1.8782711 -3.9161031
0.22718142 -2.8187284 1.8145413 -1.1398753 -2.1911948 -0.027084943 0.009593501 -0.4561475
-1.9868894 -0.50595826 -0.8521878 2.8657813 -3.6851766 -0.93163717 1.7393783 3.3152242
-6.4878254 0.8534344 -1.7891114 0.40327495 -2.2639656 2.258324 4.0427914 0.82767034
2.9039476 -6.9429765 0.8720233 2.6740663 1.8915218 -2.6052403 -0.94307125 0.024071224
-0.81199944 6.084305 3.3965106 -0.13562824 2.277228 2.5017369 -0.17009105 3.2684407
-4.0496893 -1.2132783 -6.314638 1.0206785 -0.25591743 -1.472796 3.0349448 -5.3602877
4.1402073 1.2667705 0.34384096 -0.14859323 -2.319031 0.486774 -15.17265 1.5167352
1.5371538 -3.0948715 1.2857628 2.431399 -0.3249041 -9.160595 1.3465638 -7.005996
-0.071617156 2.8132493 3.120476 4.521216 -6.518475 2.3802488 -2.2988372 2.14544
-0.47904447 -2.806373 -1.1782774 5.0042963 1.4296594 6.598603 -0.28497145 -1.005189
-2.8161259 -2.4200177 3.1639411 0.84166646 -0.3744246 3.442305 1.7892714 -2.913589
-0.7168367 5.6866236 -3.6784582 1.5722451 -1.0069853 0.93790054 -2.0678754 -1.8809044
0.37896112 4.1710873 2.4683046 -1.3868358 0.30275932 1.5707586 -1.0621312 0.052985895
-3.602888 1.7143793 1.1313584 1.2518556 0.8839176 4.1120706 -1.0247281 -2.9179852
1.4171216 -1.5756458 0.058389325 -4.804895 -1.7890584 -3.6006105 6.0569243 -2.4755068
-2.9243414 -0.043103773 -0.6926386 -2.140636 6.003403 0.20893463 3.507366 0.13983102
1.4437151 -1.2195916 2.279963 3.6548102 3.6493764 -0.21762474 -0.19772395 -1.7309443
-1.3774394 -1.3967109 9.922867 -1.467238 1.6454101 -3.6146898 0.9860133 0.30814773
-1.2311182 5.9586043 -1.2080904 -0.36930516 1.2731924 -1.6019566 2.3762896 -3.2659326
2.549581 -0.7507665 -0.08788267 0.23876846 -1.6573933 -1.2827641 -3.7474513 8.750157
-0.9978583 -2.446693 -2.5284054 0.22865976 -0.12066895 0.31256455 -9.241601 1.873105
-3.326495 3.3214955 -1.8353318 0.22941485 3.3344073 1.0595207 2.4431264 4.661972
-4.3282995 -0.9807005 0.8671154 0.31813157 2.708549 1.2558613 1.5210681 2.1141002
-1.6011953 4.3436766 3.1566827 2.0790758 3.466732 2.920467 0.44570258 4.520796
-1.4449974 -1.5857826 -8.026129 -5.800512 2.3949072 1.7490414 -1.5108106 0.10285848
-0.8929053 -0.9444962 3.5072317 -1.9187866 1.4073595 4.03585 -1.0757363 -3.2091436
2.3280234 -0.19067185 -2.4540827 1.6300157 -0.24384408 2.0406394 4.7690997 -2.0756807
-4.730765 5.2282014 0.5231777 -0.9524724 -1.8990889 3.051747 2.757375 -1.3172802
-2.2403126 1.2112613 -2.7427783 0.06556194 -0.21402128 -1.9695569 0.4126979 -0.9922247
1.1884264 -0.6069578 10.881186 2.5784636 0.15559673 4.861332 0.8131271 2.4492953
