api/game/ai/hard_model.pth (torch, 344196 bytes, 7 tensors)

conv1.weight f4 [64, 2, 3, 3]
000000 c6 52 a8 3f ef 6d 40 3e f6 ce 46 bf cf 66 69 3e
       1.315026 0.18791936 -0.7765955 0.22793125
000010 b0 9c e7 be dd 10 a1 be e2 1c bb 3e cd 95 5f be
       -0.4523673 -0.31458178 0.36545473 -0.21834488
000020 2e 1a c0 bd 85 79 0e 3f 7f ad 47 3f a7 02 01 bf
       -0.093799934 0.55654174 0.7799911 -0.5039467
000030 55 3b 48 bf b1 7c d6 bd 14 b8 fb 3e 10 fb db 3e
       -0.78215533 -0.10473002 0.49163878 0.42964983
000040 67 3a 5c 3f 4f e4 7f 3f 37 11 1f 40 2a aa 98 bf
       0.86026615 0.99957746 2.4854257 -1.192693
000050 f5 88 b8 3f 91 28 a2 bf 6e 24 a1 3e 35 64 90 be
       1.4416796 -1.266863 0.31473106 -0.28201452
000060 1b 51 2e 3f f4 64 8f bf 8f 70 6d bf 3d 0a 42 3e
       0.6809251 -1.1202683 -0.92749876 0.18949218
000070 52 e6 bb be 48 46 57 3f 80 f8 d9 bf 60 97 cf bc
       -0.36699158 0.84091616 -1.7028961 -0.025340736
000080 69 84 20 3f 6d de 42 be c4 a7 1b 3f ad 2f 38 3f
       0.6270204 -0.19030161 0.60802865 0.7194775
000090 1a 81 76 bf 18 78 8f bf b3 e9 c6 3f 1c 10 8f bb
       -0.96290743 -1.1208525 1.5540069 -0.004365934
0000a0 d3 70 9c 3f 63 7b af 3e 49 50 f9 3e b2 af 50 be
       1.2221931 0.34273824 0.48694065 -0.20379522
0000b0 f4 d3 68 3f bd 27 6e be 05 1a a0 bf 64 90 93 3f
       0.90948415 -0.23257346 -1.250794 1.152844
0000c0 5d 06 8f 3e f9 d7 ec 3e 10 38 25 3f 40 83 60 3f
       0.27934542 0.46258524 0.6453867 0.8770027
0000d0 dc 58 ed be 43 c2 e1 3f 8e a7 2c 3f 2e 07 0c bf
       -0.46356857 1.7637409 0.6744317 -0.54698455
0000e0 fa 2a 54 bf c2 14 20 3f 1e f0 26 3e fd 31 f4 be
       -0.8287808 0.62531674 0.16302535 -0.47694388
0000f0 0c a6 27 bf b5 ce 58 bf ff 0d 24 3f 0f 3e 83 bf
       -0.6548774 -0.8469041 0.64083856 -1.0253314
000100 ac 42 8b 3e b4 bc 89 be bb c3 d6 be 5a ae 6d 3f
       0.27199304 -0.26901782 -0.41946205 0.92844164
000110 84 4c 8b 3e 4d de 46 bf 79 5a 24 bf 40 04 48 3f
       0.27206814 -0.77682954 -0.6420055 0.78131485
000120 69 4d 85 3f 23 09 b8 be a3 05 d5 3e 25 3f 69 bf
       1.0414249 -0.3594447 0.41605863 -0.91111976
000130 f5 d9 3e 3e 2f f8 a0 3d 19 3d 7d 3e 7b a4 3e bf
       0.18637832 0.07859837 0.24730338 -0.7446973
000140 bc 1e 9f 3e 07 90 8f 3f d8 24 40 bf 9d 8b 03 3e
       0.31078136 1.1215829 -0.7505622 0.12846227
000150 d1 0f 4e 3f 61 3b 54 bf 54 a6 04 3f 2e 95 98 3f
       0.80492884 -0.82903105 0.51816297 1.1920526
000160 78 90 70 bf 50 81 77 3f 15 f7 bb 3e 54 1a a5 bf
       -0.9397044 0.9668169 0.36711946 -1.289866
000170 7d 56 74 3e 4a f1 d4 3e b0 37 f8 3d cb e0 49 3f
       0.23861118 0.4159034 0.121199965 0.7885863
000180 15 6e 20 3f 12 25 dd 3e 33 d3 89 bf 42 fa de 3f
       0.6266797 0.43192345 -1.0767578 1.7420123
000190 0d bf 80 bf f0 4f c4 bd ac 79 03 3f 04 8d e3 3e
       -1.0058304 -0.09585559 0.5135753 0.44443524
0001a0 6c e5 df 3e be 31 b3 3f 79 33 e3 3e d1 39 d0 be
       0.43729722 1.3999555 0.44375208 -0.4066911
0001b0 81 92 d8 3f 7e 19 94 bf f1 2d 55 3d 14 19 6f 3d
       1.691971 -1.157028 0.052045766 0.058373526
0001c0 53 67 4f 3f 2c 12 5f be b7 71 b8 3f d1 d7 86 bf
       0.81017035 -0.21784276 1.4409703 -1.0534612
0001d0 39 6a 72 3f 93 44 df be 83 4c 42 bf 38 73 52 bf
       0.9469333 -0.43607005 -0.75898 -0.8220706
0001e0 45 25 b9 bf 94 cf 63 3e 19 ec 37 bf ad 6a d9 bd
       -1.4464499 0.22247154 -0.7184463 -0.1061605
0001f0 26 bb 38 3e 4f 3c b6 3f 27 57 6e 3f 0d 7b 24 3e
       0.18040141 1.4237155 0.93101734 0.16062565
000200 3a 7d aa be f3 9e 56 3f 19 25 b1 3d ed 01 96 bf
       -0.33298665 0.8383629 0.08649654 -1.1719338
000210 b2 05 24 bf 02 c3 88 bf 36 6d 41 bf a5 f3 98 3f
       -0.6407119 -1.0684512 -0.7555727 1.1949354
000220 76 cd 9d bf 59 37 9e 3f 7e b2 aa 3f 97 0b 8a bf
       -1.2328327 1.2360641 1.3335721 -1.0784787
000230 22 a9 11 3f 6b d8 15 3e 5c e7 d9 3d 6e 4d e7 3e
       0.568987 0.14633338 0.106398314 0.45176262
000240 b3 ac 7e 3f 91 b9 d3 3e 7c 79 51 3d 60 36 74 be
       0.9948227 0.41352513 0.051141247 -0.23848867
000250 bb a1 4a bf 52 5e 47 be dc c6 e7 3e e5 9b 41 bf
       -0.7915303 -0.19469574 0.45268905 -0.756285
000260 13 9a 29 bd 6a 5c e6 3e e1 77 e3 3e ec 4b a1 3e
       -0.041406702 0.4499238 0.44427398 0.31503236
000270 dd 33 b4 3f 17 d1 80 bf 72 0d ca be 6b 4d 63 3f
       1.4078327 -1.0063809 -0.39463383 0.88790005
000280 6e ff 65 3e 32 d9 f8 bd ed ed 75 bd be 06 3e 3f
       0.2246072 -0.12150802 -0.060041357 0.7422904
000290 92 8a 02 3f 1a 41 37 3c 5f bf ce be 55 d9 01 bf
       0.5099269 0.011184955 -0.4038038 -0.5072225
0002a0 f0 98 94 bf b9 a7 a7 bf 90 cf 3d bf 58 fd 2e 3f
       -1.1609173 -1.309806 -0.7414484 0.6835532
0002b0 5b 70 99 3f 60 4a 21 be e1 40 12 3f 1d 3e a4 3f
       1.1987413 -0.15751028 0.5713025 1.2831455
0002c0 1d 41 e4 be 06 21 2a 3f 42 1e e8 be 3a 74 45 3e
       -0.44580927 0.6645664 -0.45335585 0.19282618
0002d0 98 23 b5 3f d0 6e ad 3f 36 d4 95 3f 6f bf 94 bf
       1.4151487 1.3549442 1.1705387 -1.1620921
0002e0 a1 56 c5 be 7e 73 ee 3c 58 40 cd be 30 57 6e 3d
       -0.38542655 0.029107805 -0.40088153 0.058188617
0002f0 2d d8 82 3e f7 a8 e3 3f d0 b1 14 3e d6 5b 3d 3f
       0.25555554 1.7785939 0.14520955 0.73968256
000300 7a 91 8b 3e e6 94 82 be 8e 39 38 bf 12 0c aa bf
       0.27259427 -0.25504225 -0.7196282 -1.3284934
000310 af e3 8c be 50 72 9c 3e 6b d1 bb 3e 3c a4 b8 3f
       -0.2751746 0.30555964 0.3668321 1.442512
000320 57 65 2c be a0 96 d6 3d 8b 04 3f bf 7c 6b 14 3e
       -0.16835533 0.10477948 -0.7461631 0.14494127
000330 45 1f 58 3e 4d e0 16 bf ea b0 47 bf 51 d0 9a bf
       0.21105678 -0.58936006 -0.78004324 -1.2094823
000340 75 aa c1 3f af d2 28 bf d3 ed c5 3e 65 48 08 3f
       1.5130144 -0.6594648 0.38658008 0.53235465
000350 63 b0 92 3f 06 e7 60 3f cd 51 08 bf f5 5e bf 3f
       1.1460079 0.87852514 -0.5324982 1.4950854
000360 42 a6 81 3f 61 dd 55 bd 30 13 85 3f a2 89 6f bf
       1.0128863 -0.052213077 1.039648 -0.93569386
000370 c9 37 af bf 80 7d f7 bd de 32 4a 3e 4d 70 e3 3f
       -1.3688899 -0.12084484 0.19745967 1.7768646
000380 39 34 80 3f e8 ba 19 3f 7f dd 90 bf 98 00 5d bf
       1.0015937 0.6005082 -1.1317595 -0.8632903
000390 dd af b4 bd 8f 54 6b bf df b2 c1 be 79 03 38 3c
       -0.08822606 -0.919259 -0.3783178 0.011231297
0003a0 6d cc 78 3f 5b fd 03 bf 87 6f 1a 3f 80 b8 73 be
       0.9718693 -0.51558465 0.6032643 -0.2380085
0003b0 8b cb b7 3e 96 1f 8e 3d 3a 60 8a bf 04 a9 3e 3f
       0.35897478 0.06939618 -1.0810616 0.7447665
0003c0 58 95 25 3f 0f 5b 85 3f 41 e1 b6 be e6 9e 38 3f
       0.64681005 1.0418414 -0.3571873 0.7211746
0003d0 eb 91 71 3e 88 65 bd 3e 6c ec 7d 3d f4 33 8d bf
       0.2359082 0.36991525 0.061993048 -1.103148
0003e0 fc 2e af 3e 46 f1 3a 3f e6 3f 49 3f cd 06 43 bf
       0.34215534 0.73024404 0.78613126 -0.7618225
0003f0 e3 71 3e 3e 33 96 60 bf f5 15 bf bc 61 42 aa 3e
       0.18598132 -0.87729186 -0.0233259 0.33253768

conv1.bias f4 [64]
000000 40 11 16 c0 ad 72 20 c0 a4 96 6c c0 62 b8 8b bf
       -2.3448029 -2.5069993 -3.6966944 -1.0915644
000010 d2 1b 10 c0 35 b5 35 c0 53 a1 2c c0 e3 9f 1e c0
       -2.251698 -2.839185 -2.6973464 -2.4785087
000020 c3 11 14 c0 03 3b 22 c0 30 32 10 c0 74 34 33 c0
       -2.313584 -2.5348518 -2.2530632 -2.8000765
000030 92 38 17 c0 76 60 34 c0 32 29 ea bf 45 e7 35 c0
       -2.3628278 -2.8183875 -1.8293822 -2.8422406
000040 31 1f e9 bf c0 84 4c c0 5d 9f d4 bf b5 d8 47 c0
       -1.8212644 -3.1956024 -1.6611134 -3.1226017
000050 95 da 30 c0 68 92 16 c0 09 a8 5c c0 18 fe bd bf
       -2.7633412 -2.352686 -3.447756 -1.4843168
000060 4d b8 4a c0 f1 7e b4 bf be 5d 3c c0 fe e3 2f c0
       -3.1674988 -1.410124 -2.9432216 -2.7482905
000070 5d fd 02 c0 74 30 1b c0 74 cf f7 bf 0a 55 40 c0
       -2.046714 -2.4248323 -1.9360185 -3.0051904
000080 0a ff de bf d1 3d 38 c0 f1 6f 9a bf 6b 46 33 c0
       -1.7421582 -2.878773 -1.2065412 -2.801173
000090 2a a9 13 c0 5e f7 31 c0 b8 04 56 c0 ac ae 42 c0
       -2.3072 -2.780723 -3.344038 -3.0419111
0000a0 36 41 05 c0 8b 93 f6 bf ab 0c cc 3e dd 1d 53 c0
       -2.0821052 -1.9263777 0.39853415 -3.2986977
0000b0 ed 0f 18 c0 07 e2 33 c0 6f 5d 40 c0 ba ad 0a c0
       -2.375972 -2.8106706 -3.0057027 -2.1668534
0000c0 ae 87 3c c0 ae 97 41 c0 b1 ac 0f c0 16 63 b5 bf
       -2.9457812 -3.0248828 -2.2449152 -1.4170864
0000d0 f4 02 2d c0 b2 4c 4b c0 93 f1 0a c0 ed c3 24 c0
       -2.7033052 -3.176556 -2.1709945 -2.5744584
0000e0 81 9c 15 c0 1b 6a 24 c0 c2 c7 0b c0 21 5b cc bf
       -2.3376772 -2.5689762 -2.1840672 -1.596531
0000f0 3f 13 2c bf cf 15 9a bf 11 b0 10 c0 43 be 3e c0
       -0.6721687 -1.2037905 -2.2607462 -2.9803627

conv2.weight f4 [64, 64, 3, 3]
000000 34 9f 39 bf 0c 66 b7 3f 9a c2 dc bf 9a 11 28 bf
       -0.7250855 1.4328017 -1.7246888 -0.6565186
000010 05 0c 30 3f f5 62 c3 3f d4 75 f2 3f 21 4e 06 c0
       0.6876834 1.5264574 1.8942208 -2.0985186
000020 16 a7 ef bd c4 3b f5 be 82 ab f3 bf 99 ce e3 3f
       -0.11701791 -0.4789716 -1.9036715 1.7797424
000030 ae ba 93 bf 6c 81 90 40 1a 1a 98 3f fa 9a 38 40
       -1.1541345 4.5157986 1.1882966 2.884459
000040 96 54 ff bd 15 2d aa bf 94 c7 77 3e 68 11 b5 3c
       -0.12467305 -1.3295008 0.24197227 0.022103027
000050 0f 60 e1 3f 6a 69 20 3d b8 67 6e be 82 aa 69 3f
       1.760744 0.03916303 -0.23281753 0.912758
000060 1a c0 0a 40 ae 4d 86 3f d3 df 61 3f 7f c5 82 3f
       2.167975 1.0492456 0.88232154 1.0216521
000070 75 8a c8 3f f8 41 c4 3f e5 34 be 3e af c2 75 3e
       1.5667254 1.5332632 0.3714973 0.24000047
000080 ef 20 2a 40 b7 6a ca be dd 96 a0 3e 3e 70 0a 40
       2.65826 -0.39534542 0.313651 2.1631007
000090 47 c1 20 be 80 5f df 3e ba f2 d5 bf 6a 3e e1 3f
       -0.1569873 0.43627548 -1.6714699 1.7597172
0000a0 90 62 91 3e 92 29 7f 3e f8 23 15 be fa 1b ba bf
       0.2839551 0.24918202 -0.14564502 -1.4539788
0000b0 22 33 22 40 a2 ea 86 40 e3 77 f1 bf 72 08 e6 bc
       2.534371 4.2161417 -1.8864712 -0.028080199
0000c0 42 29 49 3c 24 06 c4 3f 77 eb 74 3f bb 1e 5f 3f
       0.012277903 1.5314374 0.9567179 0.87156266
0000d0 39 86 c0 be 5f 93 aa 3f 3a 2f 4b 3f 1d 54 f7 be
       -0.37602404 1.3326224 0.79368937 -0.4830636
0000e0 41 99 db 3f 03 db 81 3e fb 86 43 3d 7f 7e 03 c0
       1.7156144 0.25362405 0.04773615 -2.0545957
0000f0 1f 57 cb 3f 40 ec 9d 3f 17 62 d2 3f 5b 5c 2a 40
       1.5885962 1.2337723 1.6436185 2.661887
000100 3b c5 a9 3f c5 f4 22 3f 1d a9 73 bd d8 88 be be
       1.3263315 0.6365474 -0.05948745 -0.37213778
000110 42 98 5c be 7b dc 8b bf 6d 05 ee 3e f7 b7 a8 bf
       -0.21542457 -1.092666 0.46488515 -1.3181142
000120 d0 75 58 40 30 b0 90 3d 29 03 80 3f 60 ba 8d 3f
       3.3821907 0.07064855 1.0000964 1.1072502
000130 b8 ba e7 bf f7 62 af 3f 09 3e 16 3f 00 c7 b8 3e
       -1.8103857 1.3702077 0.5868841 0.36089325
000140 bb 80 6f bf 44 dc c0 3f 4a 08 a7 3f e3 6d e6 bd
       -0.935558 1.506722 1.3049405 -0.11251428
000150 34 18 b3 3e 53 10 8d be 5b a1 45 3f 87 1e b1 3f
       0.34979403 -0.27551517 0.77199334 1.3837441
000160 9e e9 95 3f a0 07 10 3f 27 2b c8 3f a1 4b 04 3f
       1.1711919 0.56261635 1.5638169 0.516779
000170 cf 44 1d 40 41 d5 f8 3f a3 71 fd 3e 12 33 3a 40
       2.4573247 1.944008 0.4950076 2.909367
000180 c9 fa ae 3f 11 92 3c 40 2b e1 4f 3f 91 f6 f5 bd
       1.3670284 2.9464152 0.81202954 -0.120099194
000190 6c 39 cb 3e 6e 41 07 40 77 86 85 40 68 34 8d be
       0.39692247 2.1133685 4.172664 -0.27579045
0001a0 0f 8a 3c 3e 3a 66 c9 3f ce 1c 00 40 f1 a7 4d 3f
       0.1841204 1.5734322 2.001758 0.80334383
0001b0 1c a0 8b 3f c2 ec 75 40 0f 55 02 be 79 ae e6 3f
       1.0908237 3.8425756 -0.1272776 1.8021995
0001c0 08 53 09 40 24 6f e7 be 72 e1 09 3f ff 00 3a bf
       2.1456928 -0.4520198 0.5385963 -0.7265777
0001d0 b9 9f c3 3f 5a 9e 7a be 8a 5b c7 3f 01 51 75 bf
       1.5283118 -0.24474469 1.557481 -0.9582673
0001e0 0e bd 32 3f a6 85 c8 3d 27 ef 90 3f 3c c1 dd 3e
       0.69819725 0.097911164 1.1322984 0.4331149
0001f0 20 62 6a 3f 86 d6 b2 be f3 df 30 40 6a 9b 22 be
       0.91555977 -0.34929293 2.7636688 -0.15879598
000200 7c ea c2 3f bd 4a 80 bf ea a1 99 3f 7c fe 2c 40
       1.5227809 -1.0022808 1.2002537 2.7030325
000210 15 da a3 3f e7 cc 83 3f af ef 9d 3f 29 65 9f 3f
       1.2800928 1.0296906 1.2338771 1.2452747
000220 32 02 8b be 70 83 fc 3f ff 28 e3 3e ad ec a6 3f
       -0.27150112 1.9727612 0.44367215 1.3040978
000230 a2 1b 29 bf 3f 4d de bf 2b a5 59 40 fc 59 a0 3f
       -0.6605779 -1.7367324 3.400706 1.2527461
000240 e0 a7 90 3f e2 0b 68 3f 17 c9 41 40 ce 01 f7 bd
       1.1301231 0.9064313 3.0278986 -0.12060891
000250 f0 5d 01 40 35 bb 07 40 14 78 0a 40 4d 1b 06 40
       2.0213585 2.1208012 2.163579 2.0954163
000260 10 4f b2 3d ce df 85 bf 23 e0 04 bf d7 6f 61 40
       0.08706486 -1.0458925 -0.51904505 3.5224512
000270 c9 eb 46 40 6a 59 82 3e 4f 3b b8 3f 38 fa a4 3e
       3.1081412 0.25458843 1.43931 0.32222152
000280 2a 75 a5 3c f4 18 49 3f df d2 9b be e4 97 ed 3c
       0.02019747 0.785537 -0.3043432 0.029003091
000290 1b 40 62 3e d4 95 d3 3f 1e 7d 8e 3d ee e7 49 bc
       0.22094767 1.6530099 0.06957458 -0.012323363
0002a0 7c 1b 40 3f e4 8b 2c bf df 36 8b bf 37 59 c9 3c
       0.7504194 -0.67400956 -1.087612 0.024578674
0002b0 8d ca b6 3f ad 4d e2 bf 94 94 51 bf 9c 13 17 40
       1.4280564 -1.7679955 -0.8186734 2.3605719
0002c0 ef 07 c2 3e 54 c3 23 bf fa 16 d2 3f 53 73 36 3f
       0.37896678 -0.6396992 1.6413262 0.7126972
0002d0 51 14 55 3e 5e 95 4e bf 84 1f 3a bf 0d 1f 98 3f
       0.20808531 -0.80696666 -0.7270434 1.1884476
0002e0 bb ef 1d be 8a 25 ed 3f fc 63 3d 3e 21 2e 50 3d
       -0.15423481 1.8527081 0.18495172 0.050825242
0002f0 6a c1 0e bf 47 be 5d bf c6 a8 1c 3f a7 d8 5d 3f
       -0.55763876 -0.86618465 0.6119503 0.8665871
000300 6b 43 21 3e e4 74 99 be 84 1d 7c 3f ce d1 9d be
       0.15748374 -0.29971993 0.9848254 -0.3082413
000310 7b 42 9f 3f ab 66 c5 3f e8 25 c9 bf b8 39 0b bf
       1.2442163 1.5421957 -1.5714693 -0.54384947
000320 f8 6f 42 3f f5 4c 2c bf ff 0a 7f 3e 76 b0 5e 3e
       0.759521 -0.6730493 0.24906538 0.21747002
000330 47 c6 0c 3f 7e 99 e0 3e 11 d8 5d 3e 95 11 81 3f
       0.5499005 0.43867105 0.21664454 1.0083491
000340 1f e3 ba 3f 72 7c 04 40 e4 79 b5 3f aa c5 98 3d
       1.4600562 2.0700955 1.4177823 0.074595764
000350 8d 2f e0 3f bb 83 07 40 55 3f d8 3a 54 2c 13 40
       1.7514511 2.1174152 0.0016498367 2.2995806
000360 de 73 7a 3c ca 50 d8 3f f8 fc 3b bf 29 ac 22 3f
       0.015286414 1.6899655 -0.73432875 0.63543946
000370 f1 cf ab 3e 35 6d c4 be 63 bc 94 3f fd cc e9 3d
       0.33557084 -0.38364568 1.1619991 0.114160515
000380 00 c6 6d 3f bf e0 e4 3f 7b fa 76 40 d7 c3 9a 3f
       0.9288025 1.7881087 3.859038 1.2091016
000390 3e 85 60 3f 00 e2 24 3f 6f 37 01 40 c6 d5 1c 40
       0.8770331 0.6440735 2.0190084 2.4505477
0003a0 9c 32 56 40 84 2b 3e 3f 08 73 ac bf 26 c0 ce 3f
       3.346839 0.7428515 -1.3472605 1.6152389
0003b0 40 67 34 40 ca 19 01 bf cb 59 94 40 98 a1 f5 be
       2.8188019 -0.50429976 4.635961 -0.4797485
0003c0 cf cb 73 3f 85 ee 39 bf 57 17 e1 3d e5 14 69 40
       0.9523286 -0.72629577 0.1099078 3.6419003
0003d0 8d ac 06 3f 47 67 3b 3f 7a fe d8 3f 54 d4 d7 bf
       0.5260704 0.73204464 1.695266 -1.6861672
0003e0 ea 5b 63 3f 56 aa f6 bf b9 7a df 3f 53 a8 37 3f
       0.88812125 -1.9270732 1.7459327 0.7174122
0003f0 32 d0 48 40 79 07 a4 be 91 23 0d 3f 29 ca 03 40
       3.1377072 -0.3203695 0.55132395 2.0592139

conv2.bias f4 [64]
000000 bf 39 d4 bf 7b 35 be be f5 51 7c bf 08 d5 69 bf
       -1.6580123 -0.37150177 -0.98562557 -0.91340685
000010 c6 22 88 bf 64 2e 3c bf cd 1e 63 bf 48 97 9b bf
       -1.0635612 -0.73508286 -0.88718873 -1.2155542
000020 8e 0a 91 bf eb 38 0e 3e 0e e4 76 bf 37 bb 5b be
       -1.1331346 0.138889 -0.96441734 -0.21458136
000030 bd b8 7f bf 49 93 11 3e ca 11 ae bf e4 c8 ad bf
       -0.99891263 0.14216341 -1.3599179 -1.3576932
000040 f3 34 09 bf b8 f9 73 bf 0c af 05 3f 4e 65 03 bf
       -0.5359642 -0.95302916 0.52220225 -0.51326454
000050 8c 3e 60 bf 0e 30 1e bf cb 5d 74 bf 47 37 27 bf
       -0.8759544 -0.61792076 -0.95455617 -0.6531872
000060 cb 3c df bf 36 38 64 bf d1 00 a9 bf d4 37 b5 3d
       -1.7440428 -0.8914827 -1.3203374 0.08848539
000070 48 18 a8 bf 9f 5c 97 bf 15 b9 63 bf 35 44 85 bf
       -1.313241 -1.1825141 -0.8895429 -1.041144
000080 4a 63 f7 bd 39 a3 16 bf cd c0 84 bf 81 e6 ab bf
       -0.12079485 -0.5884281 -1.0371338 -1.3429719
000090 9b 86 25 bf 79 a9 3b bf f1 50 b2 be e9 a7 68 bf
       -0.64658517 -0.7330547 -0.34827378 -0.9088121
0000a0 33 f6 ee 3e 7f 7d b6 bd 4c 96 4b be a1 d8 89 bf
       0.4667221 -0.08910655 -0.19881552 -1.0769235
0000b0 a4 50 ca bf de 6e ee bf 66 5f cd be 09 44 a1 bf
       -1.580586 -1.8627584 -0.40111846 -1.2598888
0000c0 4d f4 bd bf 64 dc 82 bf fe cc c6 be d0 e7 7a bf
       -1.484018 -1.0223508 -0.38828272 -0.9800997
0000d0 18 7c ba bf 59 ea 89 bf 3d 0e 55 bf 9f e9 19 bf
       -1.456912 -1.0774642 -0.8322485 -0.601221
0000e0 51 44 2f bf 92 2b 25 3d 8d a9 13 bf 06 74 b2 bf
       -0.6846362 0.040324755 -0.5768059 -1.3941658
0000f0 42 48 0d be 0c 5c a3 bf cd 99 53 bf 4b b1 90 bf
       -0.13797095 -1.2762465 -0.82656556 -1.1304106

policy_head.weight f4 [14, 3136]
000000 d8 8c b1 c0 52 0c c4 c0 ff 42 d2 3f 97 0c a5 c0
       -5.548443 -6.126504 1.6426696 -5.157787
000010 b1 a4 83 c0 77 03 07 c0 39 18 d0 bf 7c 7e bf 3f
       -4.113854 -2.1095865 -1.6257392 1.4960475
000020 e9 49 b0 c0 f1 98 3c c0 76 d0 23 3f db be 73 c0
       -5.509022 -2.9468348 0.6398996 -3.808524
000030 74 2e 41 c0 ad 58 fc 3f d0 6b 86 c0 aa 15 5e 40
       -3.0184603 1.9714562 -4.2006607 3.4700723
000040 a5 a5 80 40 13 63 a7 40 4a 33 c0 c0 35 50 0a c1
       4.0202203 5.230844 -6.006261 -8.644582
000050 d7 73 d7 be 2f fb 1b c1 9a bf 1d c0 fc 46 59 bf
       -0.42080566 -9.748824 -2.4648194 -0.8487394
000060 31 77 fd bf 57 67 1e c0 04 17 d7 bf f9 78 b4 c0
       -1.9801999 -2.4750574 -1.6803899 -5.639767
000070 5f a1 b1 c0 61 f3 39 c0 eb bf 02 c0 92 4a 2c 3f
       -5.5509486 -2.9054797 -2.0429637 0.67301285
000080 6f 9b c8 c0 79 f6 81 c0 b3 cc 37 c0 53 c8 fa c0
       -6.268974 -4.061337 -2.8718688 -7.8369536
000090 1f 70 f8 3e f0 76 2d c0 63 0e c0 c0 23 72 17 c0
       0.48523042 -2.7103844 -6.001756 -2.3663414
0000a0 df 39 4b bf 06 be dc c0 88 91 ba c0 f0 7a 67 3f
       -0.7938518 -6.898196 -5.830265 0.9042196
0000b0 21 53 96 bf 15 35 8c 3f 3b 74 80 c0 47 c7 99 c0
       -1.1744119 1.0953699 -4.0141883 -4.805576
0000c0 08 3e 2a c0 29 f6 ae c0 30 1d 85 c0 da a5 ba c0
       -2.660036 -5.467549 -4.159813 -5.8327456
0000d0 e7 99 f5 bd 18 4d 25 c1 a8 ad e1 c0 d2 9a b3 c0
       -0.11992245 -10.331322 -7.0524483 -5.612649
0000e0 9e 88 9f c0 26 6b 48 3f 8e 5f 74 c1 17 9d bf c0
       -4.985427 0.78288496 -15.273329 -5.987926
0000f0 76 e1 4a c0 53 66 44 c0 eb 61 69 c0 b0 1a 5a c2
       -3.170011 -3.0687454 -3.6466014 -54.526062
000100 40 fa b3 bf f7 c5 49 c0 a3 7d 30 bf dd 8c fe 3f
       -1.4060745 -3.1527078 -0.68941706 1.9886738
000110 76 15 98 c0 3a 54 ab c0 81 e3 ac c1 bd d9 9f bf
       -4.7526197 -5.3540316 -21.611086 -1.2488323
000120 fa 78 c4 c0 04 4a ce c0 0a 12 15 c0 8d 35 46 c0
       -6.1397676 -6.446535 -2.329226 -3.0970185
000130 ac cc 35 3c 10 76 b5 c1 a4 63 41 c0 60 73 2b c1
       0.011096161 -22.682648 -3.0217066 -10.715668
000140 4e 2f 43 c0 0b 7a 46 c0 55 cc 8c c0 21 4b 0a c0
       -3.0497622 -3.101199 -4.399943 -2.1608355
000150 db f3 58 c2 15 b3 df 3d 52 a5 71 c0 df f5 97 bf
       -54.23814 0.10922829 -3.7757154 -1.1871909
000160 04 1d d8 bf 8b 29 a3 be da 29 b3 c0 52 db 98 c1
       -1.6883855 -0.31867632 -5.598859 -19.10709
000170 e5 98 8c 3f 3e d8 3f 40 16 3a 33 c0 dc 24 e5 bf
       1.098416 2.9975734 -2.8004203 -1.7901874
000180 d9 11 44 c0 78 35 f1 c0 43 b7 48 c0 49 71 8d bf
       -3.0635893 -7.537777 -3.1361854 -1.1050197
000190 a1 43 86 c0 9a 2b 05 c0 6a 1d 5b bf 7f c0 3d c0
       -4.1957555 -2.0807862 -0.8559176 -2.964874
0001a0 d0 82 dc 3f 92 1d 92 bf e0 94 9a c0 32 17 4c c0
       1.7227421 -1.1415274 -4.830673 -3.1889157
0001b0 77 41 72 c0 25 8c b1 c0 36 29 e6 bf aa 06 8a c0
       -3.7852457 -5.5483575 -1.7981327 -4.3133135
0001c0 01 f8 f1 c0 e4 b1 31 3f 13 3f ae 3e a8 5b 17 c0
       -7.561524 0.69412065 0.34032497 -2.3649693
0001d0 83 70 3a c0 73 ca 15 c0 f2 72 bb c0 7b 81 9b c0
       -2.9131172 -2.3404815 -5.8577814 -4.8595557
0001e0 9b ca a8 c0 ce b7 ab c0 0f b8 23 bf d4 38 22 c0
       -5.274732 -5.366187 -0.63952726 -2.5347185
0001f0 4a eb f9 be 74 2a 71 3f 28 85 30 c1 f1 8a fe c0
       -0.48812324 0.94205403 -11.032509 -7.9544606
000200 82 d3 50 c0 16 dd 87 c0 5a cd 27 c0 21 60 92 bf
       -3.2629094 -4.245738 -2.6219087 -1.1435586
000210 9d 4c 0d bf 13 e7 da 3f a3 1c 13 c1 c7 c7 8f c0
       -0.5519503 1.7101768 -9.194491 -4.493137
000220 93 b7 8f c0 b2 d6 b2 c0 04 8e 8a c0 13 d7 04 c1
       -4.491159 -5.588708 -4.329836 -8.302508
000230 cd 11 44 c1 b1 e7 85 c0 af 92 25 40 bc 8e 28 3d
       -12.254346 -4.1845326 2.5870779 0.041151747
000240 3c 61 02 3f 2d 2d b0 bf c4 0c 5d c0 91 63 77 c0
       0.5092962 -1.3763787 -3.4539042 -3.865452
000250 98 68 60 40 a4 cf e0 bf 06 f7 84 3f a4 b5 ab c0
       3.506384 -1.7563367 1.0387886 -5.365923
000260 d4 b5 5d c0 b7 b9 c5 c0 71 5a ba c0 a8 0e af bf
       -3.464223 -6.1789203 -5.82354 -1.3676348
000270 31 0c 97 3f 50 3b 20 c1 50 86 c1 3f 22 2e 89 c0
       1.1800596 -10.014481 1.5119114 -4.2868814
000280 f1 79 65 c0 3a ab 99 bf fe a0 2b c1 30 a1 bb bf
       -3.5855677 -1.2005379 -10.726805 -1.4658566
000290 32 a9 59 bf 36 bd ef bf 41 ad 47 c0 24 02 e5 c0
       -0.85023797 -1.8729618 -3.1199496 -7.1565113
0002a0 34 a3 a9 c1 e0 73 cd c0 d0 53 da c0 81 64 d9 3c
       -21.204689 -6.420395 -6.822731 0.026537182
0002b0 5d 8f 12 3f f2 34 67 c0 b8 9a 1c 40 7f 7d 43 c1
       0.57250005 -3.6126065 2.4469433 -12.218139
0002c0 1c 00 6b c0 1d 8b 2f bf 81 69 18 40 98 fc 52 c0
       -3.6718817 -0.68571645 2.3814394 -3.296667
0002d0 d5 51 1e c0 12 4a 0c c0 42 b3 7f c1 c0 7d a2 3f
       -2.4737446 -2.192021 -15.981264 1.2694626
0002e0 a8 38 10 bf 91 b9 26 c0 fb ea 12 40 87 e2 92 c0
       -0.5633645 -2.605076 2.295592 -4.5901523
0002f0 b5 d7 99 c0 17 36 af c1 19 9c 98 c0 5d f3 12 c0
       -4.8075814 -21.901411 -4.769055 -2.2961037
000300 fb ee 30 bf 32 d8 0f 3f 97 12 1a c0 c8 e8 d4 bd
       -0.69114655 0.5618926 -2.4073846 -0.10395962
000310 8e b7 62 c0 95 57 09 c1 63 02 d6 bf c2 70 b8 3f
       -3.5424533 -8.583882 -1.6719478 1.4409411
000320 d6 52 25 c0 c8 ed a7 c0 87 52 c8 bf dd 4d 94 c1
       -2.583181 -5.247776 -1.5650185 -18.53802
000330 f4 a7 d3 bf 38 b1 dd bf e2 f0 7f c0 c6 87 cb c0
       -1.653563 -1.7319708 -3.9990773 -6.360324
000340 74 d9 9f c0 e0 26 aa be 15 a9 98 40 81 d4 2e c1
       -4.9952946 -0.33232784 4.77064 -10.926881
000350 50 0c 92 c0 d5 5d 99 c0 ac 02 77 c0 e9 45 a2 c0
       -4.564003 -4.792704 -3.859538 -5.071034
000360 d2 98 18 c0 5f 09 09 c1 4e 76 83 c0 34 8e 66 3e
       -2.3843274 -8.564788 -4.1081915 0.22515184
000370 b9 96 08 bf fc 61 6b 3f ed 30 0b c0 75 2a 5d 3f
       -0.53354985 0.9194639 -2.1748612 0.8639291
000380 1b 4b 31 c1 b9 f1 26 c1 7a 9a d8 bf 6f bc 1a c0
       -11.080836 -10.434014 -1.6922143 -2.417751
000390 58 49 46 c0 55 df 8f 3e bf 62 c8 bf 61 6c d7 c0
       -3.0982265 0.28100076 -1.5655135 -6.73198
0003a0 8d 5e 3d 3f af 86 a2 bf 43 a2 08 c1 d9 3b 05 c0
       0.739724 -1.2697352 -8.539615 -2.0817778
0003b0 b0 27 6a c0 13 f9 22 c0 40 11 5d c0 83 3e 80 bf
       -3.6586723 -2.5464523 -3.4541779 -1.0019077
0003c0 aa ef d6 bf 84 c7 20 c0 b9 eb 86 c0 1e d7 10 c0
       -1.679189 -2.5121775 -4.2162747 -2.2631297
0003d0 36 89 99 3e 08 1e 3c c0 f6 c0 05 c0 92 80 37 3f
       0.29987496 -2.939333 -2.0899024 0.7168056
0003e0 d9 f4 9e bf 1d ab 73 c0 85 df 96 c0 b1 60 c5 bf
       -1.2418472 -3.807319 -4.714785 -1.5420133
0003f0 86 a9 36 c0 94 21 fc c0 7c 32 18 c0 21 af 02 be
       -2.854097 -7.879099 -2.3780813 -0.12762119

policy_head.bias f4 [14]
000000 f4 4d 2a c1 1f c5 c1 c1 ec c0 be c0 27 f7 c0 c1
       -10.644032 -24.22125 -5.96105 -24.12068
000010 fd 59 fd c0 24 76 ab c1 e1 87 b3 c1 59 3e d4 c1
       -7.917235 -21.432686 -22.441347 -26.530443
000020 e1 db b3 c1 8e c1 c4 c0 be a2 94 c1 7d ea 01 c2
       -22.482363 -6.1486273 -18.579464 -32.478992
000030 53 46 00 c1 e5 55 0e c1
       -8.017169 -8.89597

value_head.weight f4 [1, 3136]
000000 ea 17 f3 bd 13 7b 28 40 a7 60 6b bf fe d3 a0 c0
       -0.118697956 2.6325119 -0.91944355 -5.025878
000010 8d 9c 32 40 74 5d 64 c0 ea 21 37 c0 10 83 a0 bf
       2.790805 -3.568204 -2.861445 -1.2539997
000020 c1 ce c1 bf 18 42 11 40 ba ce b5 bf 5b da 44 40
       -1.5141221 2.269659 -1.4203713 3.0758274
000030 86 71 8d bf 21 c2 ec 3f e6 ce f2 3f a0 7d 79 c0
       -1.105027 1.8496743 1.896939 -3.8982925
000040 7b 3d 7c 3e 1b 44 33 c0 e1 08 e8 3f e8 28 92 bf
       0.24632828 -2.8010318 1.812771 -1.1418734
000050 18 8a 0b c0 b7 68 e1 bc c6 f1 e5 3c 8a 9c e0 be
       -2.1803036 -0.027515752 0.028069388 -0.4386943
000060 6c 1f fc bf 89 e3 04 bf e6 eb 5c bf f5 9c 36 40
       -1.9697089 -0.5190969 -0.8629745 2.85333
000070 90 2c 6b c0 c5 ed 6c bf 37 42 e0 3f 60 5b 55 40
       -3.6745949 -0.9255031 1.7520207 3.333702
000080 de fd cf c0 94 50 58 3f ce 69 e6 bf b4 43 d3 3e
       -6.4997396 0.8449795 -1.8001039 0.4126259
000090 d1 f9 0f c0 18 bd 11 40 e8 c5 81 40 dd 28 51 3f
       -2.2496226 2.2771664 4.0554085 0.8170298
0000a0 a0 f3 39 40 aa 25 de c0 8e 12 5d 3f ee 7a 2a 40
       2.9054947 -6.9420977 0.8635644 2.663753
0000b0 f7 4c f3 3f 84 97 26 c0 09 fb 70 bf 69 57 cd 3c
       1.9007863 -2.6029978 -0.9413305 0.025066094
0000c0 89 bc 4f bf a0 b2 c2 40 6a 7a 59 40 d8 c0 f2 bd
       -0.81147057 6.084305 3.3980966 -0.11853188
0000d0 63 ce 12 40 75 1c 20 40 59 2c 2e be 87 ce 51 40
       2.2938468 2.5017369 -0.17009105 3.2782304
0000e0 04 da 80 c0 78 d2 99 bf 35 7c c9 c0 20 b1 84 3f
       -4.026613 -1.2017355 -6.296412 1.0366554
0000f0 59 22 80 be 85 64 bc bf 51 49 42 40 74 d6 ab c0
       -0.25026205 -1.4718176 3.0357249 -5.3699284
000100 17 0f 85 40 0b 31 a4 3f c0 39 b8 3e d3 28 18 be
       4.158092 1.2827467 0.3598156 -0.14859323
000110 26 6a 14 c0 51 a9 f2 3e 2d c3 72 c1 e9 2f c4 3f
       -2.3189788 0.47394803 -15.17265 1.5327121
000120 05 cd c6 3f 4f fa 44 c0 af 55 a5 3f aa e1 1a 40
       1.5531317 -3.0777776 1.2916774 2.4200234
000130 39 67 ab be ab 79 12 c1 57 e6 ac 3f 46 9e df c0
       -0.3347719 -9.154704 1.3507794 -6.9880705
000140 1a 24 61 bd ec 68 34 40 0d f9 46 40 6b 78 90 40
       -0.05496607 2.818904 3.1089509 4.5146995
000150 c0 c9 d0 c0 36 d2 18 40 5b a0 12 c0 e4 4e 09 40
       -6.5246277 2.3878303 -2.2910373 2.14544
000160 51 45 f5 be 79 94 33 c0 35 b1 96 bf 81 26 a0 40
       -0.47904447 -2.805937 -1.1772829 5.0047
000170 d6 6d b8 3f a0 88 d3 40 c7 e7 91 be 92 a7 80 bf
       1.4408519 6.610428 -0.28497145 -1.0051138
000180 68 3b 34 c0 06 dc 1a c0 03 7e 4a 40 3d 3a 5e 3f
       -2.8161259 -2.4196792 3.1639411 0.86807615
000190 ad 99 b6 be 60 53 5d 40 d8 06 e5 3f 3e 78 3a c0
       -0.3566412 3.4582138 1.7892714 -2.913589
0001a0 9c 82 37 bf 33 31 b6 40 8d f4 6a c0 c2 92 cb 3f
       -0.7168367 5.693506 -3.6711762 1.5904162
0001b0 bf 94 7d bf 40 1a 70 3f 12 58 04 c0 7a a8 f0 bf
       -0.99055094 0.93790054 -2.0678754 -1.8801415
0001c0 de 0b c0 3e 1f 07 86 40 ce 2a 1f 40 8f 54 af bf
       0.37509054 4.1883693 2.4869876 -1.369768
0001d0 c7 ef 9d 3e 9e 0e c9 3f 12 b9 87 bf fa 31 70 3d
       0.30846998 1.5707586 -1.0603354 0.05864141
0001e0 36 2e 66 c0 1e b0 dd 3f 33 f5 92 3f 1b a5 9f 3f
       -3.5965705 1.7319372 1.1481079 1.2472261
0001f0 c2 19 61 3f 15 96 83 40 c0 9b 83 bf 24 76 3a c0
       0.8792993 4.1120706 -1.0281906 -2.9134607
000200 e6 d1 b7 3f f8 78 c7 bf b5 61 4e 3d 72 b3 99 c0
       1.4360931 -1.5583792 0.05038615 -4.803155
000210 00 6f e6 bf b8 c3 66 c0 8a 01 c2 40 dd c5 1d c0
       -1.8002625 -3.6056957 6.062688 -2.4652016
000220 dd 59 3a c0 b0 40 62 bd 60 f9 30 bf 9a a0 09 c0
       -2.9117348 -0.055237472 -0.69130516 -2.1504273
000230 e2 54 c0 40 07 fe 54 3e a8 59 61 40 0d ed 10 3e
       6.0103617 0.20800029 3.5210972 0.14152928
000240 30 a6 b8 3f 54 00 9c bf 55 f1 11 40 19 65 6a 40
       1.4425716 -1.21876 2.2803547 3.6624205
000250 a5 9f 6a 40 3d bf 52 be 9c ad 44 be 95 8f dd bf
       3.665994 -0.20580764 -0.19206852 -1.7309443
000260 ef 4f b0 bf 6c c7 b2 bf c6 0a 1f 41 c0 0f bb bf
       -1.3774394 -1.3967109 9.94013 -1.4614182
000270 cc f0 d3 3f 54 51 66 c0 5e 6b 7c 3f 8a c5 9d 3e
       1.655786 -3.5987139 0.9860133 0.30814773
000280 b3 8a 9d bf dd 34 bf 40 ac 93 98 bf 8b 4a b9 be
       -1.2307953 5.975203 -1.1920066 -0.36189684
000290 8e 0c a5 3f 38 47 ce bf f5 73 17 40 0a 05 51 c0
       1.2894456 -1.6115484 2.3664525 -3.2659326
0002a0 c6 8c 23 40 b6 1b 3c bf 8d 01 90 bd 07 8b 82 3e
       2.5554671 -0.73479784 -0.07031546 0.25496694
0002b0 f7 e7 d5 bf 01 80 a5 bf 14 9d 70 c0 a1 20 0c 41
       -1.6711415 -1.2929689 -3.7595873 8.757966
0002c0 89 c9 7d bf 8c 68 1b c0 c4 a7 20 c0 16 03 6b 3e
       -0.99135643 -2.428256 -2.5102396 0.22950396
0002d0 6a d7 03 be c1 f4 9f 3e f4 92 13 c1 55 99 f0 3f
       -0.12875143 0.3124142 -9.223377 1.8796793
0002e0 54 c5 53 c0 54 40 55 40 27 ec ea bf 1d 45 62 3e
       -3.308919 3.3320513 -1.8353318 0.22096677
0002f0 06 dc 54 40 c3 2a 86 3f 82 c5 1b 40 98 66 95 40
       3.3259292 1.04818 2.43393 4.6687737
000300 26 77 8a c0 43 ba 7a bf 87 25 5e 3f 38 4c a0 3e
       -4.3270445 -0.9794046 0.8677601 0.3130815
000310 5e 7a 2e 40 31 a8 a2 3f 15 dc c4 3f 75 57 08 40
       2.7262187 1.2707578 1.5379664 2.130338
000320 f8 f3 cc bf 37 57 8b 40 c2 0b 4a 40 1d ab 07 40
       -1.6011953 4.3543963 3.1569676 2.119819
000330 96 13 5f 40 2a 14 3c 40 d6 b9 ec 3e 28 38 91 40
       3.4855704 2.9387307 0.46235532 4.538105
000340 24 86 ba bf 77 4b c9 bf 30 df ff c0 a4 49 b8 c0
       -1.4572186 -1.5726155 -7.9959946 -5.7589893
000350 97 72 1a 40 3a 06 e2 3f a9 6f c0 bf 43 69 ce 3d
       2.413244 1.765815 -1.5034076 0.10078671
000360 9c c6 63 bf c1 4e 72 bf 45 fd 60 40 c0 32 f3 bf
       -0.8897493 -0.9465142 3.5154583 -1.8999863
000370 05 41 b6 3f 15 31 81 40 1f 18 8a bf c1 8c 4d c0
       1.4238592 4.0372415 -1.0788611 -3.211716
000380 24 7b 15 40 65 8e 31 be e0 e2 1b c0 f0 e4 d2 3f
       2.335641 -0.17339475 -2.4357224 1.6476116
000390 a4 cf 7c be b5 7a 02 40 d6 81 98 40 3d 8b 04 c0
       -0.24688584 2.0387394 4.765849 -2.0709984
0003a0 40 27 97 c0 fd e3 a7 40 e3 2d 09 3f 33 1a 76 bf
       -4.7235413 5.2465806 0.5358564 -0.96133727
0003b0 a6 7c f3 bf 05 70 42 40 bb 6e 30 40 65 73 a8 bf
       -1.9022415 3.0380871 2.7567585 -1.3160216
0003c0 1f 33 0f c0 87 9d 9c 3f 9d 78 2f c0 01 6b 89 3d
       -2.2374952 1.2235574 -2.7417367 0.067098625
0003d0 30 07 62 be 2a f8 f6 bf ad a2 d8 3e 8e 58 79 bf
       -0.22073054 -1.9294484 0.42311612 -0.9740075
0003e0 7d 46 9a 3f f5 ee 19 bf 56 19 2e 41 99 ae 25 40
       1.2052761 -0.60130244 10.881186 2.5887816
0003f0 61 92 27 3e 66 be 9b 40 35 5f 54 3f e3 7b 1d 40
       0.16364433 4.866992 0.82957774 2.4606864
